titanic_net_1.pth (torch_old, 1222 bytes, 5 tensors)

dl1.weight f4 [4, 3]
0.1818277 0.29791066 0.23567666 0.3561869 0.12987243 0.13254553 -0.4720344 -0.46408123
0.19621983 0.5144034 0.29594913 -0.26216435
00000000: 0a31 3a3e bf87 983e 3955 713e 215e b63e
00000010: 47fd 043e 04ba 073e 7eae f1be 0e9c edbe
00000020: daed 483e f1af 033f a586 973e 683a 86be

dl1.bias f4 [4]
-0.3886233 -0.49570486 0.33487388 -0.11662102
00000000: a2f9 c6be 07cd fdbe 9774 ab3e 00d7 eebd

dl2.weight f4 [5, 4]
-0.10328717 0.08800929 0.33595753 0.43823606 -0.12224717 -0.35312423 0.12179807 -0.48165256
0.39475036 0.05927922 0.45901993 0.16539867 -0.26357782 -0.26582837 -0.15588951 0.2333448
0.24270824 0.263327 -0.066195 0.2185854
00000000: 3988 d3bd 373e b43d a002 ac3e 7a60 e03e
00000010: b95c fabd b3cc b4be 4471 f93d 2a9b f6be
00000020: b81c ca3e c4ce 723d a904 eb3e 455e 293e
00000030: acf3 86be a81a 88be 80a1 1fbe f0f1 6e3e
00000040: 8288 783e ccd2 863e 3f91 87bd dad4 5f3e

dl2.bias f4 [5]
-0.48404402 0.17412151 -0.19695646 -0.380252 -0.20496958
00000000: 9ed4 f7be e94c 323e f4ae 49be 64b0 c2be
00000010: 8ce3 51be

dl3.weight f4 [1, 5]
0.4173528 -0.17082457 -0.20106061 -0.36094084 0.13290854
00000000: 44af d53e a3ec 2ebe d5e2 4dbe 3dcd b8be
00000010: 2d19 083e
