titanic_net.pth (torch_old, 1222 bytes, 5 tensors)

dl1.weight f4 [4, 3]
00000000: 73f8 e4be f89e 333e db35 da3d e60d babe
00000010: 193e c6be bae2 74be 3179 d7be a2ad 6a3e
00000020: c13c bf3e 2e15 5bbc 4a45 a33e c547 c5bd
-0.44720802 0.1754111 0.10654803 -0.3633873 -0.38719252 -0.23914614 -0.4208465 0.22917798
0.3735104 -0.013371749 0.318888 -0.096328296

dl1.bias f4 [4]
00000000: b6de 1b3d e079 b73d 89bc 09bf c3be b8bd
0.03805419 0.08958793 -0.53803307 -0.0902076

dl2.weight f4 [5, 4]
00000000: f808 cabe 606d aabe 3b12 8e3e 314e 493e
00000010: 7fd4 84be 30f7 433d e4a1 e93e cc61 cc3c
00000020: 9844 e0be 8074 ba3b 8859 433e 46c0 8dbe
00000030: 4699 0b3c 680a 8abd b299 773e aab8 9cbe
00000040: fd3f eb3e 243e 2c3e 0c66 223e cd2c a9bd
-0.39459968 -0.33286572 0.27748284 0.19658734 -0.25943372 0.04784316 0.45631325 0.024948977
-0.43802333 0.0056901574 0.19077122 -0.27685755 0.00852043 -0.06740266 0.24179724 -0.30609637
0.45947257 0.1682058 0.1585924 -0.08260498

dl2.bias f4 [5]
00000000: 806c 963d ea39 7ebc 68f2 ef3e f336 db3d
00000010: f602 f7bd
0.073449135 -0.0155167375 0.4686463 0.1070384 -0.12061112

dl3.weight f4 [1, 5]
00000000: 9394 993e ea5e 8abe 0da4 6abd c171 cdbe
00000010: 9a3e bb3e
0.29996166 -0.2702554 -0.057285357 -0.4012585 0.365712
